{
  "layers" : [
    {
      "bottom" : "data",
      "alpha" : 0.069409757852554321,
      "operation" : 3,
      "weights" : {

      },
      "fused_relu" : 0,
      "debug_info" : "",
      "top" : "data__fix__underflow_____conv_1",
      "type" : "elementwise",
      "name" : "conv_1__fix__underflow___",
      "beta" : 0
    },
    {
      "pad_r" : 3,
      "fused_relu" : 1,
      "fused_tanh" : 0,
      "debug_info" : "",
      "pad_fill_mode" : 0,
      "pad_b" : 3,
      "pad_l" : 3,
      "top" : "conv_1",
      "blob_weights" : 3,
      "K" : 3,
      "blob_biases" : 1,
      "stride_x" : 2,
      "name" : "conv_1",
      "has_batch_norm" : 0,
      "type" : "convolution",
      "n_groups" : 1,
      "pad_t" : 3,
      "stride_y" : 2,
      "has_biases" : 1,
      "C" : 64,
      "bottom" : "data__fix__underflow_____conv_1",
      "weights" : {

      },
      "Nx" : 7,
      "pad_mode" : 0,
      "pad_value" : 0,
      "Ny" : 7,
      "n_parallel" : 1
    },
    {
      "pad_r" : 0,
      "debug_info" : "pool1",
      "pad_fill_mode" : 0,
      "pad_b" : 0,
      "pad_l" : 0,
      "size_x" : 3,
      "top" : "pool1",
      "top_shape_style" : 2,
      "stride_x" : 2,
      "avg_or_max" : 1,
      "average_count_exclude_padding" : 0,
      "type" : "pool",
      "name" : "pool1",
      "pad_t" : 0,
      "stride_y" : 2,
      "bottom" : "conv_1",
      "weights" : {

      },
      "pad_mode" : 0,
      "size_y" : 3,
      "pad_value" : 0
    },
    {
      "pad_r" : 0,
      "fused_relu" : 0,
      "fused_tanh" : 0,
      "debug_info" : "conv_stage0_block0_proj_shortcut",
      "pad_fill_mode" : 0,
      "pad_b" : 0,
      "pad_l" : 0,
      "top" : "conv_stage0_block0_proj_shortcut",
      "blob_weights" : 7,
      "K" : 64,
      "blob_biases" : 5,
      "name" : "conv_stage0_block0_proj_shortcut",
      "has_batch_norm" : 0,
      "type" : "convolution",
      "n_groups" : 1,
      "pad_t" : 0,
      "has_biases" : 1,
      "C" : 128,
      "bottom" : "pool1",
      "weights" : {

      },
      "Nx" : 1,
      "pad_mode" : 0,
      "pad_value" : 0,
      "Ny" : 1,
      "n_parallel" : 1
    },
    {
      "pad_r" : 0,
      "fused_relu" : 1,
      "fused_tanh" : 0,
      "debug_info" : "conv_stage0_block0_branch2a",
      "pad_fill_mode" : 0,
      "pad_b" : 0,
      "pad_l" : 0,
      "top" : "conv_stage0_block0_branch2a",
      "blob_weights" : 11,
      "K" : 64,
      "blob_biases" : 9,
      "name" : "conv_stage0_block0_branch2a",
      "has_batch_norm" : 0,
      "type" : "convolution",
      "n_groups" : 1,
      "pad_t" : 0,
      "has_biases" : 1,
      "C" : 32,
      "bottom" : "pool1",
      "weights" : {

      },
      "Nx" : 1,
      "pad_mode" : 0,
      "pad_value" : 0,
      "Ny" : 1,
      "n_parallel" : 1
    },
    {
      "pad_r" : 1,
      "fused_relu" : 1,
      "fused_tanh" : 0,
      "debug_info" : "conv_stage0_block0_branch2b",
      "pad_fill_mode" : 0,
      "pad_b" : 1,
      "pad_l" : 1,
      "top" : "conv_stage0_block0_branch2b",
      "blob_weights" : 15,
      "K" : 32,
      "blob_biases" : 13,
      "name" : "conv_stage0_block0_branch2b",
      "has_batch_norm" : 0,
      "type" : "convolution",
      "n_groups" : 1,
      "pad_t" : 1,
      "has_biases" : 1,
      "C" : 32,
      "bottom" : "conv_stage0_block0_branch2a",
      "weights" : {

      },
      "Nx" : 3,
      "pad_mode" : 0,
      "pad_value" : 0,
      "Ny" : 3,
      "n_parallel" : 1
    },
    {
      "pad_r" : 0,
      "fused_relu" : 0,
      "fused_tanh" : 0,
      "debug_info" : "conv_stage0_block0_branch2c",
      "pad_fill_mode" : 0,
      "pad_b" : 0,
      "pad_l" : 0,
      "top" : "conv_stage0_block0_branch2c",
      "blob_weights" : 19,
      "K" : 32,
      "blob_biases" : 17,
      "name" : "conv_stage0_block0_branch2c",
      "has_batch_norm" : 0,
      "type" : "convolution",
      "n_groups" : 1,
      "pad_t" : 0,
      "has_biases" : 1,
      "C" : 128,
      "bottom" : "conv_stage0_block0_branch2b",
      "weights" : {

      },
      "Nx" : 1,
      "pad_mode" : 0,
      "pad_value" : 0,
      "Ny" : 1,
      "n_parallel" : 1
    },
    {
      "bottom" : "conv_stage0_block0_proj_shortcut,conv_stage0_block0_branch2c",
      "alpha" : 1,
      "operation" : 0,
      "weights" : {

      },
      "fused_relu" : 0,
      "debug_info" : "eltwise_stage0_block0",
      "top" : "eltwise_stage0_block0_20relu_stage0_block0",
      "type" : "elementwise",
      "name" : "eltwise_stage0_block0",
      "beta" : 0
    },
    {
      "bottom" : "eltwise_stage0_block0_20relu_stage0_block0",
      "weights" : {

      },
      "mode" : 0,
      "debug_info" : "relu_stage0_block0",
      "top" : "eltwise_stage0_block0",
      "type" : "activation",
      "name" : "relu_stage0_block0"
    },
    {
      "pad_r" : 0,
      "fused_relu" : 1,
      "fused_tanh" : 0,
      "debug_info" : "conv_stage0_block1_branch2a",
      "pad_fill_mode" : 0,
      "pad_b" : 0,
      "pad_l" : 0,
      "top" : "conv_stage0_block1_branch2a",
      "blob_weights" : 23,
      "K" : 128,
      "blob_biases" : 21,
      "name" : "conv_stage0_block1_branch2a",
      "has_batch_norm" : 0,
      "type" : "convolution",
      "n_groups" : 1,
      "pad_t" : 0,
      "has_biases" : 1,
      "C" : 32,
      "bottom" : "eltwise_stage0_block0",
      "weights" : {

      },
      "Nx" : 1,
      "pad_mode" : 0,
      "pad_value" : 0,
      "Ny" : 1,
      "n_parallel" : 1
    },
    {
      "pad_r" : 1,
      "fused_relu" : 1,
      "fused_tanh" : 0,
      "debug_info" : "conv_stage0_block1_branch2b",
      "pad_fill_mode" : 0,
      "pad_b" : 1,
      "pad_l" : 1,
      "top" : "conv_stage0_block1_branch2b",
      "blob_weights" : 27,
      "K" : 32,
      "blob_biases" : 25,
      "name" : "conv_stage0_block1_branch2b",
      "has_batch_norm" : 0,
      "type" : "convolution",
      "n_groups" : 1,
      "pad_t" : 1,
      "has_biases" : 1,
      "C" : 32,
      "bottom" : "conv_stage0_block1_branch2a",
      "weights" : {

      },
      "Nx" : 3,
      "pad_mode" : 0,
      "pad_value" : 0,
      "Ny" : 3,
      "n_parallel" : 1
    },
    {
      "pad_r" : 0,
      "fused_relu" : 0,
      "fused_tanh" : 0,
      "debug_info" : "conv_stage0_block1_branch2c",
      "pad_fill_mode" : 0,
      "pad_b" : 0,
      "pad_l" : 0,
      "top" : "conv_stage0_block1_branch2c",
      "blob_weights" : 31,
      "K" : 32,
      "blob_biases" : 29,
      "name" : "conv_stage0_block1_branch2c",
      "has_batch_norm" : 0,
      "type" : "convolution",
      "n_groups" : 1,
      "pad_t" : 0,
      "has_biases" : 1,
      "C" : 128,
      "bottom" : "conv_stage0_block1_branch2b",
      "weights" : {

      },
      "Nx" : 1,
      "pad_mode" : 0,
      "pad_value" : 0,
      "Ny" : 1,
      "n_parallel" : 1
    },
    {
      "bottom" : "eltwise_stage0_block0,conv_stage0_block1_branch2c",
      "alpha" : 1,
      "operation" : 0,
      "weights" : {

      },
      "fused_relu" : 0,
      "debug_info" : "eltwise_stage0_block1",
      "top" : "eltwise_stage0_block1_33relu_stage0_block1",
      "type" : "elementwise",
      "name" : "eltwise_stage0_block1",
      "beta" : 0
    },
    {
      "bottom" : "eltwise_stage0_block1_33relu_stage0_block1",
      "weights" : {

      },
      "mode" : 0,
      "debug_info" : "relu_stage0_block1",
      "top" : "eltwise_stage0_block1",
      "type" : "activation",
      "name" : "relu_stage0_block1"
    },
    {
      "pad_r" : 0,
      "fused_relu" : 1,
      "fused_tanh" : 0,
      "debug_info" : "conv_stage0_block2_branch2a",
      "pad_fill_mode" : 0,
      "pad_b" : 0,
      "pad_l" : 0,
      "top" : "conv_stage0_block2_branch2a",
      "blob_weights" : 35,
      "K" : 128,
      "blob_biases" : 33,
      "name" : "conv_stage0_block2_branch2a",
      "has_batch_norm" : 0,
      "type" : "convolution",
      "n_groups" : 1,
      "pad_t" : 0,
      "has_biases" : 1,
      "C" : 32,
      "bottom" : "eltwise_stage0_block1",
      "weights" : {

      },
      "Nx" : 1,
      "pad_mode" : 0,
      "pad_value" : 0,
      "Ny" : 1,
      "n_parallel" : 1
    },
    {
      "pad_r" : 1,
      "fused_relu" : 1,
      "fused_tanh" : 0,
      "debug_info" : "conv_stage0_block2_branch2b",
      "pad_fill_mode" : 0,
      "pad_b" : 1,
      "pad_l" : 1,
      "top" : "conv_stage0_block2_branch2b",
      "blob_weights" : 39,
      "K" : 32,
      "blob_biases" : 37,
      "name" : "conv_stage0_block2_branch2b",
      "has_batch_norm" : 0,
      "type" : "convolution",
      "n_groups" : 1,
      "pad_t" : 1,
      "has_biases" : 1,
      "C" : 32,
      "bottom" : "conv_stage0_block2_branch2a",
      "weights" : {

      },
      "Nx" : 3,
      "pad_mode" : 0,
      "pad_value" : 0,
      "Ny" : 3,
      "n_parallel" : 1
    },
    {
      "pad_r" : 0,
      "fused_relu" : 0,
      "fused_tanh" : 0,
      "debug_info" : "conv_stage0_block2_branch2c",
      "pad_fill_mode" : 0,
      "pad_b" : 0,
      "pad_l" : 0,
      "top" : "conv_stage0_block2_branch2c",
      "blob_weights" : 43,
      "K" : 32,
      "blob_biases" : 41,
      "name" : "conv_stage0_block2_branch2c",
      "has_batch_norm" : 0,
      "type" : "convolution",
      "n_groups" : 1,
      "pad_t" : 0,
      "has_biases" : 1,
      "C" : 128,
      "bottom" : "conv_stage0_block2_branch2b",
      "weights" : {

      },
      "Nx" : 1,
      "pad_mode" : 0,
      "pad_value" : 0,
      "Ny" : 1,
      "n_parallel" : 1
    },
    {
      "bottom" : "eltwise_stage0_block1,conv_stage0_block2_branch2c",
      "alpha" : 1,
      "operation" : 0,
      "weights" : {

      },
      "fused_relu" : 0,
      "debug_info" : "eltwise_stage0_block2",
      "top" : "eltwise_stage0_block2_46relu_stage0_block2",
      "type" : "elementwise",
      "name" : "eltwise_stage0_block2",
      "beta" : 0
    },
    {
      "bottom" : "eltwise_stage0_block2_46relu_stage0_block2",
      "weights" : {

      },
      "mode" : 0,
      "debug_info" : "relu_stage0_block2",
      "top" : "eltwise_stage0_block2",
      "type" : "activation",
      "name" : "relu_stage0_block2"
    },
    {
      "pad_r" : 0,
      "fused_relu" : 0,
      "fused_tanh" : 0,
      "debug_info" : "conv_stage1_block0_proj_shortcut",
      "pad_fill_mode" : 0,
      "pad_b" : 0,
      "pad_l" : 0,
      "top" : "conv_stage1_block0_proj_shortcut",
      "blob_weights" : 47,
      "K" : 128,
      "blob_biases" : 45,
      "stride_x" : 2,
      "name" : "conv_stage1_block0_proj_shortcut",
      "has_batch_norm" : 0,
      "type" : "convolution",
      "n_groups" : 1,
      "pad_t" : 0,
      "stride_y" : 2,
      "has_biases" : 1,
      "C" : 256,
      "bottom" : "eltwise_stage0_block2",
      "weights" : {

      },
      "Nx" : 1,
      "pad_mode" : 0,
      "pad_value" : 0,
      "Ny" : 1,
      "n_parallel" : 1
    },
    {
      "pad_r" : 0,
      "fused_relu" : 1,
      "fused_tanh" : 0,
      "debug_info" : "conv_stage1_block0_branch2a",
      "pad_fill_mode" : 0,
      "pad_b" : 0,
      "pad_l" : 0,
      "top" : "conv_stage1_block0_branch2a",
      "blob_weights" : 51,
      "K" : 128,
      "blob_biases" : 49,
      "stride_x" : 2,
      "name" : "conv_stage1_block0_branch2a",
      "has_batch_norm" : 0,
      "type" : "convolution",
      "n_groups" : 1,
      "pad_t" : 0,
      "stride_y" : 2,
      "has_biases" : 1,
      "C" : 64,
      "bottom" : "eltwise_stage0_block2",
      "weights" : {

      },
      "Nx" : 1,
      "pad_mode" : 0,
      "pad_value" : 0,
      "Ny" : 1,
      "n_parallel" : 1
    },
    {
      "pad_r" : 1,
      "fused_relu" : 1,
      "fused_tanh" : 0,
      "debug_info" : "conv_stage1_block0_branch2b",
      "pad_fill_mode" : 0,
      "pad_b" : 1,
      "pad_l" : 1,
      "top" : "conv_stage1_block0_branch2b",
      "blob_weights" : 55,
      "K" : 64,
      "blob_biases" : 53,
      "name" : "conv_stage1_block0_branch2b",
      "has_batch_norm" : 0,
      "type" : "convolution",
      "n_groups" : 1,
      "pad_t" : 1,
      "has_biases" : 1,
      "C" : 64,
      "bottom" : "conv_stage1_block0_branch2a",
      "weights" : {

      },
      "Nx" : 3,
      "pad_mode" : 0,
      "pad_value" : 0,
      "Ny" : 3,
      "n_parallel" : 1
    },
    {
      "pad_r" : 0,
      "fused_relu" : 0,
      "fused_tanh" : 0,
      "debug_info" : "conv_stage1_block0_branch2c",
      "pad_fill_mode" : 0,
      "pad_b" : 0,
      "pad_l" : 0,
      "top" : "conv_stage1_block0_branch2c",
      "blob_weights" : 59,
      "K" : 64,
      "blob_biases" : 57,
      "name" : "conv_stage1_block0_branch2c",
      "has_batch_norm" : 0,
      "type" : "convolution",
      "n_groups" : 1,
      "pad_t" : 0,
      "has_biases" : 1,
      "C" : 256,
      "bottom" : "conv_stage1_block0_branch2b",
      "weights" : {

      },
      "Nx" : 1,
      "pad_mode" : 0,
      "pad_value" : 0,
      "Ny" : 1,
      "n_parallel" : 1
    },
    {
      "bottom" : "conv_stage1_block0_proj_shortcut,conv_stage1_block0_branch2c",
      "alpha" : 1,
      "operation" : 0,
      "weights" : {

      },
      "fused_relu" : 0,
      "debug_info" : "eltwise_stage1_block0",
      "top" : "eltwise_stage1_block0_62relu_stage1_block0",
      "type" : "elementwise",
      "name" : "eltwise_stage1_block0",
      "beta" : 0
    },
    {
      "bottom" : "eltwise_stage1_block0_62relu_stage1_block0",
      "weights" : {

      },
      "mode" : 0,
      "debug_info" : "relu_stage1_block0",
      "top" : "eltwise_stage1_block0",
      "type" : "activation",
      "name" : "relu_stage1_block0"
    },
    {
      "pad_r" : 0,
      "fused_relu" : 1,
      "fused_tanh" : 0,
      "debug_info" : "conv_stage1_block1_branch2a",
      "pad_fill_mode" : 0,
      "pad_b" : 0,
      "pad_l" : 0,
      "top" : "conv_stage1_block1_branch2a",
      "blob_weights" : 63,
      "K" : 256,
      "blob_biases" : 61,
      "name" : "conv_stage1_block1_branch2a",
      "has_batch_norm" : 0,
      "type" : "convolution",
      "n_groups" : 1,
      "pad_t" : 0,
      "has_biases" : 1,
      "C" : 64,
      "bottom" : "eltwise_stage1_block0",
      "weights" : {

      },
      "Nx" : 1,
      "pad_mode" : 0,
      "pad_value" : 0,
      "Ny" : 1,
      "n_parallel" : 1
    },
    {
      "pad_r" : 1,
      "fused_relu" : 1,
      "fused_tanh" : 0,
      "debug_info" : "conv_stage1_block1_branch2b",
      "pad_fill_mode" : 0,
      "pad_b" : 1,
      "pad_l" : 1,
      "top" : "conv_stage1_block1_branch2b",
      "blob_weights" : 67,
      "K" : 64,
      "blob_biases" : 65,
      "name" : "conv_stage1_block1_branch2b",
      "has_batch_norm" : 0,
      "type" : "convolution",
      "n_groups" : 1,
      "pad_t" : 1,
      "has_biases" : 1,
      "C" : 64,
      "bottom" : "conv_stage1_block1_branch2a",
      "weights" : {

      },
      "Nx" : 3,
      "pad_mode" : 0,
      "pad_value" : 0,
      "Ny" : 3,
      "n_parallel" : 1
    },
    {
      "pad_r" : 0,
      "fused_relu" : 0,
      "fused_tanh" : 0,
      "debug_info" : "conv_stage1_block1_branch2c",
      "pad_fill_mode" : 0,
      "pad_b" : 0,
      "pad_l" : 0,
      "top" : "conv_stage1_block1_branch2c",
      "blob_weights" : 71,
      "K" : 64,
      "blob_biases" : 69,
      "name" : "conv_stage1_block1_branch2c",
      "has_batch_norm" : 0,
      "type" : "convolution",
      "n_groups" : 1,
      "pad_t" : 0,
      "has_biases" : 1,
      "C" : 256,
      "bottom" : "conv_stage1_block1_branch2b",
      "weights" : {

      },
      "Nx" : 1,
      "pad_mode" : 0,
      "pad_value" : 0,
      "Ny" : 1,
      "n_parallel" : 1
    },
    {
      "bottom" : "eltwise_stage1_block0,conv_stage1_block1_branch2c",
      "alpha" : 1,
      "operation" : 0,
      "weights" : {

      },
      "fused_relu" : 0,
      "debug_info" : "eltwise_stage1_block1",
      "top" : "eltwise_stage1_block1_75relu_stage1_block1",
      "type" : "elementwise",
      "name" : "eltwise_stage1_block1",
      "beta" : 0
    },
    {
      "bottom" : "eltwise_stage1_block1_75relu_stage1_block1",
      "weights" : {

      },
      "mode" : 0,
      "debug_info" : "relu_stage1_block1",
      "top" : "eltwise_stage1_block1",
      "type" : "activation",
      "name" : "relu_stage1_block1"
    },
    {
      "pad_r" : 0,
      "fused_relu" : 1,
      "fused_tanh" : 0,
      "debug_info" : "conv_stage1_block2_branch2a",
      "pad_fill_mode" : 0,
      "pad_b" : 0,
      "pad_l" : 0,
      "top" : "conv_stage1_block2_branch2a",
      "blob_weights" : 75,
      "K" : 256,
      "blob_biases" : 73,
      "name" : "conv_stage1_block2_branch2a",
      "has_batch_norm" : 0,
      "type" : "convolution",
      "n_groups" : 1,
      "pad_t" : 0,
      "has_biases" : 1,
      "C" : 64,
      "bottom" : "eltwise_stage1_block1",
      "weights" : {

      },
      "Nx" : 1,
      "pad_mode" : 0,
      "pad_value" : 0,
      "Ny" : 1,
      "n_parallel" : 1
    },
    {
      "pad_r" : 1,
      "fused_relu" : 1,
      "fused_tanh" : 0,
      "debug_info" : "conv_stage1_block2_branch2b",
      "pad_fill_mode" : 0,
      "pad_b" : 1,
      "pad_l" : 1,
      "top" : "conv_stage1_block2_branch2b",
      "blob_weights" : 79,
      "K" : 64,
      "blob_biases" : 77,
      "name" : "conv_stage1_block2_branch2b",
      "has_batch_norm" : 0,
      "type" : "convolution",
      "n_groups" : 1,
      "pad_t" : 1,
      "has_biases" : 1,
      "C" : 64,
      "bottom" : "conv_stage1_block2_branch2a",
      "weights" : {

      },
      "Nx" : 3,
      "pad_mode" : 0,
      "pad_value" : 0,
      "Ny" : 3,
      "n_parallel" : 1
    },
    {
      "pad_r" : 0,
      "fused_relu" : 0,
      "fused_tanh" : 0,
      "debug_info" : "conv_stage1_block2_branch2c",
      "pad_fill_mode" : 0,
      "pad_b" : 0,
      "pad_l" : 0,
      "top" : "conv_stage1_block2_branch2c",
      "blob_weights" : 83,
      "K" : 64,
      "blob_biases" : 81,
      "name" : "conv_stage1_block2_branch2c",
      "has_batch_norm" : 0,
      "type" : "convolution",
      "n_groups" : 1,
      "pad_t" : 0,
      "has_biases" : 1,
      "C" : 256,
      "bottom" : "conv_stage1_block2_branch2b",
      "weights" : {

      },
      "Nx" : 1,
      "pad_mode" : 0,
      "pad_value" : 0,
      "Ny" : 1,
      "n_parallel" : 1
    },
    {
      "bottom" : "eltwise_stage1_block1,conv_stage1_block2_branch2c",
      "alpha" : 1,
      "operation" : 0,
      "weights" : {

      },
      "fused_relu" : 0,
      "debug_info" : "eltwise_stage1_block2",
      "top" : "eltwise_stage1_block2_88relu_stage1_block2",
      "type" : "elementwise",
      "name" : "eltwise_stage1_block2",
      "beta" : 0
    },
    {
      "bottom" : "eltwise_stage1_block2_88relu_stage1_block2",
      "weights" : {

      },
      "mode" : 0,
      "debug_info" : "relu_stage1_block2",
      "top" : "eltwise_stage1_block2",
      "type" : "activation",
      "name" : "relu_stage1_block2"
    },
    {
      "pad_r" : 0,
      "fused_relu" : 1,
      "fused_tanh" : 0,
      "debug_info" : "conv_stage1_block3_branch2a",
      "pad_fill_mode" : 0,
      "pad_b" : 0,
      "pad_l" : 0,
      "top" : "conv_stage1_block3_branch2a",
      "blob_weights" : 87,
      "K" : 256,
      "blob_biases" : 85,
      "name" : "conv_stage1_block3_branch2a",
      "has_batch_norm" : 0,
      "type" : "convolution",
      "n_groups" : 1,
      "pad_t" : 0,
      "has_biases" : 1,
      "C" : 64,
      "bottom" : "eltwise_stage1_block2",
      "weights" : {

      },
      "Nx" : 1,
      "pad_mode" : 0,
      "pad_value" : 0,
      "Ny" : 1,
      "n_parallel" : 1
    },
    {
      "pad_r" : 1,
      "fused_relu" : 1,
      "fused_tanh" : 0,
      "debug_info" : "conv_stage1_block3_branch2b",
      "pad_fill_mode" : 0,
      "pad_b" : 1,
      "pad_l" : 1,
      "top" : "conv_stage1_block3_branch2b",
      "blob_weights" : 91,
      "K" : 64,
      "blob_biases" : 89,
      "name" : "conv_stage1_block3_branch2b",
      "has_batch_norm" : 0,
      "type" : "convolution",
      "n_groups" : 1,
      "pad_t" : 1,
      "has_biases" : 1,
      "C" : 64,
      "bottom" : "conv_stage1_block3_branch2a",
      "weights" : {

      },
      "Nx" : 3,
      "pad_mode" : 0,
      "pad_value" : 0,
      "Ny" : 3,
      "n_parallel" : 1
    },
    {
      "pad_r" : 0,
      "fused_relu" : 0,
      "fused_tanh" : 0,
      "debug_info" : "conv_stage1_block3_branch2c",
      "pad_fill_mode" : 0,
      "pad_b" : 0,
      "pad_l" : 0,
      "top" : "conv_stage1_block3_branch2c",
      "blob_weights" : 95,
      "K" : 64,
      "blob_biases" : 93,
      "name" : "conv_stage1_block3_branch2c",
      "has_batch_norm" : 0,
      "type" : "convolution",
      "n_groups" : 1,
      "pad_t" : 0,
      "has_biases" : 1,
      "C" : 256,
      "bottom" : "conv_stage1_block3_branch2b",
      "weights" : {

      },
      "Nx" : 1,
      "pad_mode" : 0,
      "pad_value" : 0,
      "Ny" : 1,
      "n_parallel" : 1
    },
    {
      "bottom" : "eltwise_stage1_block2,conv_stage1_block3_branch2c",
      "alpha" : 1,
      "operation" : 0,
      "weights" : {

      },
      "fused_relu" : 0,
      "debug_info" : "eltwise_stage1_block3",
      "top" : "eltwise_stage1_block3_101relu_stage1_block3",
      "type" : "elementwise",
      "name" : "eltwise_stage1_block3",
      "beta" : 0
    },
    {
      "bottom" : "eltwise_stage1_block3_101relu_stage1_block3",
      "weights" : {

      },
      "mode" : 0,
      "debug_info" : "relu_stage1_block3",
      "top" : "eltwise_stage1_block3",
      "type" : "activation",
      "name" : "relu_stage1_block3"
    },
    {
      "pad_r" : 0,
      "fused_relu" : 0,
      "fused_tanh" : 0,
      "debug_info" : "conv_stage2_block0_proj_shortcut",
      "pad_fill_mode" : 0,
      "pad_b" : 0,
      "pad_l" : 0,
      "top" : "conv_stage2_block0_proj_shortcut",
      "blob_weights" : 99,
      "K" : 256,
      "blob_biases" : 97,
      "stride_x" : 2,
      "name" : "conv_stage2_block0_proj_shortcut",
      "has_batch_norm" : 0,
      "type" : "convolution",
      "n_groups" : 1,
      "pad_t" : 0,
      "stride_y" : 2,
      "has_biases" : 1,
      "C" : 512,
      "bottom" : "eltwise_stage1_block3",
      "weights" : {

      },
      "Nx" : 1,
      "pad_mode" : 0,
      "pad_value" : 0,
      "Ny" : 1,
      "n_parallel" : 1
    },
    {
      "pad_r" : 0,
      "fused_relu" : 1,
      "fused_tanh" : 0,
      "debug_info" : "conv_stage2_block0_branch2a",
      "pad_fill_mode" : 0,
      "pad_b" : 0,
      "pad_l" : 0,
      "top" : "conv_stage2_block0_branch2a",
      "blob_weights" : 103,
      "K" : 256,
      "blob_biases" : 101,
      "stride_x" : 2,
      "name" : "conv_stage2_block0_branch2a",
      "has_batch_norm" : 0,
      "type" : "convolution",
      "n_groups" : 1,
      "pad_t" : 0,
      "stride_y" : 2,
      "has_biases" : 1,
      "C" : 128,
      "bottom" : "eltwise_stage1_block3",
      "weights" : {

      },
      "Nx" : 1,
      "pad_mode" : 0,
      "pad_value" : 0,
      "Ny" : 1,
      "n_parallel" : 1
    },
    {
      "pad_r" : 1,
      "fused_relu" : 1,
      "fused_tanh" : 0,
      "debug_info" : "conv_stage2_block0_branch2b",
      "pad_fill_mode" : 0,
      "pad_b" : 1,
      "pad_l" : 1,
      "top" : "conv_stage2_block0_branch2b",
      "blob_weights" : 107,
      "K" : 128,
      "blob_biases" : 105,
      "name" : "conv_stage2_block0_branch2b",
      "has_batch_norm" : 0,
      "type" : "convolution",
      "n_groups" : 1,
      "pad_t" : 1,
      "has_biases" : 1,
      "C" : 128,
      "bottom" : "conv_stage2_block0_branch2a",
      "weights" : {

      },
      "Nx" : 3,
      "pad_mode" : 0,
      "pad_value" : 0,
      "Ny" : 3,
      "n_parallel" : 1
    },
    {
      "pad_r" : 0,
      "fused_relu" : 0,
      "fused_tanh" : 0,
      "debug_info" : "conv_stage2_block0_branch2c",
      "pad_fill_mode" : 0,
      "pad_b" : 0,
      "pad_l" : 0,
      "top" : "conv_stage2_block0_branch2c",
      "blob_weights" : 111,
      "K" : 128,
      "blob_biases" : 109,
      "name" : "conv_stage2_block0_branch2c",
      "has_batch_norm" : 0,
      "type" : "convolution",
      "n_groups" : 1,
      "pad_t" : 0,
      "has_biases" : 1,
      "C" : 512,
      "bottom" : "conv_stage2_block0_branch2b",
      "weights" : {

      },
      "Nx" : 1,
      "pad_mode" : 0,
      "pad_value" : 0,
      "Ny" : 1,
      "n_parallel" : 1
    },
    {
      "bottom" : "conv_stage2_block0_proj_shortcut,conv_stage2_block0_branch2c",
      "alpha" : 1,
      "operation" : 0,
      "weights" : {

      },
      "fused_relu" : 0,
      "debug_info" : "eltwise_stage2_block0",
      "top" : "eltwise_stage2_block0_117relu_stage2_block0",
      "type" : "elementwise",
      "name" : "eltwise_stage2_block0",
      "beta" : 0
    },
    {
      "bottom" : "eltwise_stage2_block0_117relu_stage2_block0",
      "weights" : {

      },
      "mode" : 0,
      "debug_info" : "relu_stage2_block0",
      "top" : "eltwise_stage2_block0",
      "type" : "activation",
      "name" : "relu_stage2_block0"
    },
    {
      "pad_r" : 0,
      "fused_relu" : 1,
      "fused_tanh" : 0,
      "debug_info" : "conv_stage2_block1_branch2a",
      "pad_fill_mode" : 0,
      "pad_b" : 0,
      "pad_l" : 0,
      "top" : "conv_stage2_block1_branch2a",
      "blob_weights" : 115,
      "K" : 512,
      "blob_biases" : 113,
      "name" : "conv_stage2_block1_branch2a",
      "has_batch_norm" : 0,
      "type" : "convolution",
      "n_groups" : 1,
      "pad_t" : 0,
      "has_biases" : 1,
      "C" : 128,
      "bottom" : "eltwise_stage2_block0",
      "weights" : {

      },
      "Nx" : 1,
      "pad_mode" : 0,
      "pad_value" : 0,
      "Ny" : 1,
      "n_parallel" : 1
    },
    {
      "pad_r" : 1,
      "fused_relu" : 1,
      "fused_tanh" : 0,
      "debug_info" : "conv_stage2_block1_branch2b",
      "pad_fill_mode" : 0,
      "pad_b" : 1,
      "pad_l" : 1,
      "top" : "conv_stage2_block1_branch2b",
      "blob_weights" : 119,
      "K" : 128,
      "blob_biases" : 117,
      "name" : "conv_stage2_block1_branch2b",
      "has_batch_norm" : 0,
      "type" : "convolution",
      "n_groups" : 1,
      "pad_t" : 1,
      "has_biases" : 1,
      "C" : 128,
      "bottom" : "conv_stage2_block1_branch2a",
      "weights" : {

      },
      "Nx" : 3,
      "pad_mode" : 0,
      "pad_value" : 0,
      "Ny" : 3,
      "n_parallel" : 1
    },
    {
      "pad_r" : 0,
      "fused_relu" : 0,
      "fused_tanh" : 0,
      "debug_info" : "conv_stage2_block1_branch2c",
      "pad_fill_mode" : 0,
      "pad_b" : 0,
      "pad_l" : 0,
      "top" : "conv_stage2_block1_branch2c",
      "blob_weights" : 123,
      "K" : 128,
      "blob_biases" : 121,
      "name" : "conv_stage2_block1_branch2c",
      "has_batch_norm" : 0,
      "type" : "convolution",
      "n_groups" : 1,
      "pad_t" : 0,
      "has_biases" : 1,
      "C" : 512,
      "bottom" : "conv_stage2_block1_branch2b",
      "weights" : {

      },
      "Nx" : 1,
      "pad_mode" : 0,
      "pad_value" : 0,
      "Ny" : 1,
      "n_parallel" : 1
    },
    {
      "bottom" : "eltwise_stage2_block0,conv_stage2_block1_branch2c",
      "alpha" : 1,
      "operation" : 0,
      "weights" : {

      },
      "fused_relu" : 0,
      "debug_info" : "eltwise_stage2_block1",
      "top" : "eltwise_stage2_block1_130relu_stage2_block1",
      "type" : "elementwise",
      "name" : "eltwise_stage2_block1",
      "beta" : 0
    },
    {
      "bottom" : "eltwise_stage2_block1_130relu_stage2_block1",
      "weights" : {

      },
      "mode" : 0,
      "debug_info" : "relu_stage2_block1",
      "top" : "eltwise_stage2_block1",
      "type" : "activation",
      "name" : "relu_stage2_block1"
    },
    {
      "pad_r" : 0,
      "fused_relu" : 1,
      "fused_tanh" : 0,
      "debug_info" : "conv_stage2_block2_branch2a",
      "pad_fill_mode" : 0,
      "pad_b" : 0,
      "pad_l" : 0,
      "top" : "conv_stage2_block2_branch2a",
      "blob_weights" : 127,
      "K" : 512,
      "blob_biases" : 125,
      "name" : "conv_stage2_block2_branch2a",
      "has_batch_norm" : 0,
      "type" : "convolution",
      "n_groups" : 1,
      "pad_t" : 0,
      "has_biases" : 1,
      "C" : 128,
      "bottom" : "eltwise_stage2_block1",
      "weights" : {

      },
      "Nx" : 1,
      "pad_mode" : 0,
      "pad_value" : 0,
      "Ny" : 1,
      "n_parallel" : 1
    },
    {
      "pad_r" : 1,
      "fused_relu" : 1,
      "fused_tanh" : 0,
      "debug_info" : "conv_stage2_block2_branch2b",
      "pad_fill_mode" : 0,
      "pad_b" : 1,
      "pad_l" : 1,
      "top" : "conv_stage2_block2_branch2b",
      "blob_weights" : 131,
      "K" : 128,
      "blob_biases" : 129,
      "name" : "conv_stage2_block2_branch2b",
      "has_batch_norm" : 0,
      "type" : "convolution",
      "n_groups" : 1,
      "pad_t" : 1,
      "has_biases" : 1,
      "C" : 128,
      "bottom" : "conv_stage2_block2_branch2a",
      "weights" : {

      },
      "Nx" : 3,
      "pad_mode" : 0,
      "pad_value" : 0,
      "Ny" : 3,
      "n_parallel" : 1
    },
    {
      "pad_r" : 0,
      "fused_relu" : 0,
      "fused_tanh" : 0,
      "debug_info" : "conv_stage2_block2_branch2c",
      "pad_fill_mode" : 0,
      "pad_b" : 0,
      "pad_l" : 0,
      "top" : "conv_stage2_block2_branch2c",
      "blob_weights" : 135,
      "K" : 128,
      "blob_biases" : 133,
      "name" : "conv_stage2_block2_branch2c",
      "has_batch_norm" : 0,
      "type" : "convolution",
      "n_groups" : 1,
      "pad_t" : 0,
      "has_biases" : 1,
      "C" : 512,
      "bottom" : "conv_stage2_block2_branch2b",
      "weights" : {

      },
      "Nx" : 1,
      "pad_mode" : 0,
      "pad_value" : 0,
      "Ny" : 1,
      "n_parallel" : 1
    },
    {
      "bottom" : "eltwise_stage2_block1,conv_stage2_block2_branch2c",
      "alpha" : 1,
      "operation" : 0,
      "weights" : {

      },
      "fused_relu" : 0,
      "debug_info" : "eltwise_stage2_block2",
      "top" : "eltwise_stage2_block2_143relu_stage2_block2",
      "type" : "elementwise",
      "name" : "eltwise_stage2_block2",
      "beta" : 0
    },
    {
      "bottom" : "eltwise_stage2_block2_143relu_stage2_block2",
      "weights" : {

      },
      "mode" : 0,
      "debug_info" : "relu_stage2_block2",
      "top" : "eltwise_stage2_block2",
      "type" : "activation",
      "name" : "relu_stage2_block2"
    },
    {
      "pad_r" : 0,
      "fused_relu" : 1,
      "fused_tanh" : 0,
      "debug_info" : "conv_stage2_block3_branch2a",
      "pad_fill_mode" : 0,
      "pad_b" : 0,
      "pad_l" : 0,
      "top" : "conv_stage2_block3_branch2a",
      "blob_weights" : 139,
      "K" : 512,
      "blob_biases" : 137,
      "name" : "conv_stage2_block3_branch2a",
      "has_batch_norm" : 0,
      "type" : "convolution",
      "n_groups" : 1,
      "pad_t" : 0,
      "has_biases" : 1,
      "C" : 128,
      "bottom" : "eltwise_stage2_block2",
      "weights" : {

      },
      "Nx" : 1,
      "pad_mode" : 0,
      "pad_value" : 0,
      "Ny" : 1,
      "n_parallel" : 1
    },
    {
      "pad_r" : 1,
      "fused_relu" : 1,
      "fused_tanh" : 0,
      "debug_info" : "conv_stage2_block3_branch2b",
      "pad_fill_mode" : 0,
      "pad_b" : 1,
      "pad_l" : 1,
      "top" : "conv_stage2_block3_branch2b",
      "blob_weights" : 143,
      "K" : 128,
      "blob_biases" : 141,
      "name" : "conv_stage2_block3_branch2b",
      "has_batch_norm" : 0,
      "type" : "convolution",
      "n_groups" : 1,
      "pad_t" : 1,
      "has_biases" : 1,
      "C" : 128,
      "bottom" : "conv_stage2_block3_branch2a",
      "weights" : {

      },
      "Nx" : 3,
      "pad_mode" : 0,
      "pad_value" : 0,
      "Ny" : 3,
      "n_parallel" : 1
    },
    {
      "pad_r" : 0,
      "fused_relu" : 0,
      "fused_tanh" : 0,
      "debug_info" : "conv_stage2_block3_branch2c",
      "pad_fill_mode" : 0,
      "pad_b" : 0,
      "pad_l" : 0,
      "top" : "conv_stage2_block3_branch2c",
      "blob_weights" : 147,
      "K" : 128,
      "blob_biases" : 145,
      "name" : "conv_stage2_block3_branch2c",
      "has_batch_norm" : 0,
      "type" : "convolution",
      "n_groups" : 1,
      "pad_t" : 0,
      "has_biases" : 1,
      "C" : 512,
      "bottom" : "conv_stage2_block3_branch2b",
      "weights" : {

      },
      "Nx" : 1,
      "pad_mode" : 0,
      "pad_value" : 0,
      "Ny" : 1,
      "n_parallel" : 1
    },
    {
      "bottom" : "eltwise_stage2_block2,conv_stage2_block3_branch2c",
      "alpha" : 1,
      "operation" : 0,
      "weights" : {

      },
      "fused_relu" : 0,
      "debug_info" : "eltwise_stage2_block3",
      "top" : "eltwise_stage2_block3_156relu_stage2_block3",
      "type" : "elementwise",
      "name" : "eltwise_stage2_block3",
      "beta" : 0
    },
    {
      "bottom" : "eltwise_stage2_block3_156relu_stage2_block3",
      "weights" : {

      },
      "mode" : 0,
      "debug_info" : "relu_stage2_block3",
      "top" : "eltwise_stage2_block3",
      "type" : "activation",
      "name" : "relu_stage2_block3"
    },
    {
      "pad_r" : 0,
      "fused_relu" : 1,
      "fused_tanh" : 0,
      "debug_info" : "conv_stage2_block4_branch2a",
      "pad_fill_mode" : 0,
      "pad_b" : 0,
      "pad_l" : 0,
      "top" : "conv_stage2_block4_branch2a",
      "blob_weights" : 151,
      "K" : 512,
      "blob_biases" : 149,
      "name" : "conv_stage2_block4_branch2a",
      "has_batch_norm" : 0,
      "type" : "convolution",
      "n_groups" : 1,
      "pad_t" : 0,
      "has_biases" : 1,
      "C" : 128,
      "bottom" : "eltwise_stage2_block3",
      "weights" : {

      },
      "Nx" : 1,
      "pad_mode" : 0,
      "pad_value" : 0,
      "Ny" : 1,
      "n_parallel" : 1
    },
    {
      "pad_r" : 1,
      "fused_relu" : 1,
      "fused_tanh" : 0,
      "debug_info" : "conv_stage2_block4_branch2b",
      "pad_fill_mode" : 0,
      "pad_b" : 1,
      "pad_l" : 1,
      "top" : "conv_stage2_block4_branch2b",
      "blob_weights" : 155,
      "K" : 128,
      "blob_biases" : 153,
      "name" : "conv_stage2_block4_branch2b",
      "has_batch_norm" : 0,
      "type" : "convolution",
      "n_groups" : 1,
      "pad_t" : 1,
      "has_biases" : 1,
      "C" : 128,
      "bottom" : "conv_stage2_block4_branch2a",
      "weights" : {

      },
      "Nx" : 3,
      "pad_mode" : 0,
      "pad_value" : 0,
      "Ny" : 3,
      "n_parallel" : 1
    },
    {
      "pad_r" : 0,
      "fused_relu" : 0,
      "fused_tanh" : 0,
      "debug_info" : "conv_stage2_block4_branch2c",
      "pad_fill_mode" : 0,
      "pad_b" : 0,
      "pad_l" : 0,
      "top" : "conv_stage2_block4_branch2c",
      "blob_weights" : 159,
      "K" : 128,
      "blob_biases" : 157,
      "name" : "conv_stage2_block4_branch2c",
      "has_batch_norm" : 0,
      "type" : "convolution",
      "n_groups" : 1,
      "pad_t" : 0,
      "has_biases" : 1,
      "C" : 512,
      "bottom" : "conv_stage2_block4_branch2b",
      "weights" : {

      },
      "Nx" : 1,
      "pad_mode" : 0,
      "pad_value" : 0,
      "Ny" : 1,
      "n_parallel" : 1
    },
    {
      "bottom" : "eltwise_stage2_block3,conv_stage2_block4_branch2c",
      "alpha" : 1,
      "operation" : 0,
      "weights" : {

      },
      "fused_relu" : 0,
      "debug_info" : "eltwise_stage2_block4",
      "top" : "eltwise_stage2_block4_169relu_stage2_block4",
      "type" : "elementwise",
      "name" : "eltwise_stage2_block4",
      "beta" : 0
    },
    {
      "bottom" : "eltwise_stage2_block4_169relu_stage2_block4",
      "weights" : {

      },
      "mode" : 0,
      "debug_info" : "relu_stage2_block4",
      "top" : "eltwise_stage2_block4",
      "type" : "activation",
      "name" : "relu_stage2_block4"
    },
    {
      "pad_r" : 0,
      "fused_relu" : 1,
      "fused_tanh" : 0,
      "debug_info" : "conv_stage2_block5_branch2a",
      "pad_fill_mode" : 0,
      "pad_b" : 0,
      "pad_l" : 0,
      "top" : "conv_stage2_block5_branch2a",
      "blob_weights" : 163,
      "K" : 512,
      "blob_biases" : 161,
      "name" : "conv_stage2_block5_branch2a",
      "has_batch_norm" : 0,
      "type" : "convolution",
      "n_groups" : 1,
      "pad_t" : 0,
      "has_biases" : 1,
      "C" : 128,
      "bottom" : "eltwise_stage2_block4",
      "weights" : {

      },
      "Nx" : 1,
      "pad_mode" : 0,
      "pad_value" : 0,
      "Ny" : 1,
      "n_parallel" : 1
    },
    {
      "pad_r" : 1,
      "fused_relu" : 1,
      "fused_tanh" : 0,
      "debug_info" : "conv_stage2_block5_branch2b",
      "pad_fill_mode" : 0,
      "pad_b" : 1,
      "pad_l" : 1,
      "top" : "conv_stage2_block5_branch2b",
      "blob_weights" : 167,
      "K" : 128,
      "blob_biases" : 165,
      "name" : "conv_stage2_block5_branch2b",
      "has_batch_norm" : 0,
      "type" : "convolution",
      "n_groups" : 1,
      "pad_t" : 1,
      "has_biases" : 1,
      "C" : 128,
      "bottom" : "conv_stage2_block5_branch2a",
      "weights" : {

      },
      "Nx" : 3,
      "pad_mode" : 0,
      "pad_value" : 0,
      "Ny" : 3,
      "n_parallel" : 1
    },
    {
      "pad_r" : 0,
      "fused_relu" : 0,
      "fused_tanh" : 0,
      "debug_info" : "conv_stage2_block5_branch2c",
      "pad_fill_mode" : 0,
      "pad_b" : 0,
      "pad_l" : 0,
      "top" : "conv_stage2_block5_branch2c",
      "blob_weights" : 171,
      "K" : 128,
      "blob_biases" : 169,
      "name" : "conv_stage2_block5_branch2c",
      "has_batch_norm" : 0,
      "type" : "convolution",
      "n_groups" : 1,
      "pad_t" : 0,
      "has_biases" : 1,
      "C" : 512,
      "bottom" : "conv_stage2_block5_branch2b",
      "weights" : {

      },
      "Nx" : 1,
      "pad_mode" : 0,
      "pad_value" : 0,
      "Ny" : 1,
      "n_parallel" : 1
    },
    {
      "bottom" : "eltwise_stage2_block4,conv_stage2_block5_branch2c",
      "alpha" : 1,
      "operation" : 0,
      "weights" : {

      },
      "fused_relu" : 0,
      "debug_info" : "eltwise_stage2_block5",
      "top" : "eltwise_stage2_block5_182relu_stage2_block5",
      "type" : "elementwise",
      "name" : "eltwise_stage2_block5",
      "beta" : 0
    },
    {
      "bottom" : "eltwise_stage2_block5_182relu_stage2_block5",
      "weights" : {

      },
      "mode" : 0,
      "debug_info" : "relu_stage2_block5",
      "top" : "eltwise_stage2_block5",
      "type" : "activation",
      "name" : "relu_stage2_block5"
    },
    {
      "pad_r" : 0,
      "fused_relu" : 0,
      "fused_tanh" : 0,
      "debug_info" : "conv_stage3_block0_proj_shortcut",
      "pad_fill_mode" : 0,
      "pad_b" : 0,
      "pad_l" : 0,
      "top" : "conv_stage3_block0_proj_shortcut",
      "blob_weights" : 175,
      "K" : 512,
      "blob_biases" : 173,
      "stride_x" : 2,
      "name" : "conv_stage3_block0_proj_shortcut",
      "has_batch_norm" : 0,
      "type" : "convolution",
      "n_groups" : 1,
      "pad_t" : 0,
      "stride_y" : 2,
      "has_biases" : 1,
      "C" : 1024,
      "bottom" : "eltwise_stage2_block5",
      "weights" : {

      },
      "Nx" : 1,
      "pad_mode" : 0,
      "pad_value" : 0,
      "Ny" : 1,
      "n_parallel" : 1
    },
    {
      "pad_r" : 0,
      "fused_relu" : 1,
      "fused_tanh" : 0,
      "debug_info" : "conv_stage3_block0_branch2a",
      "pad_fill_mode" : 0,
      "pad_b" : 0,
      "pad_l" : 0,
      "top" : "conv_stage3_block0_branch2a",
      "blob_weights" : 179,
      "K" : 512,
      "blob_biases" : 177,
      "stride_x" : 2,
      "name" : "conv_stage3_block0_branch2a",
      "has_batch_norm" : 0,
      "type" : "convolution",
      "n_groups" : 1,
      "pad_t" : 0,
      "stride_y" : 2,
      "has_biases" : 1,
      "C" : 256,
      "bottom" : "eltwise_stage2_block5",
      "weights" : {

      },
      "Nx" : 1,
      "pad_mode" : 0,
      "pad_value" : 0,
      "Ny" : 1,
      "n_parallel" : 1
    },
    {
      "pad_r" : 1,
      "fused_relu" : 1,
      "fused_tanh" : 0,
      "debug_info" : "conv_stage3_block0_branch2b",
      "pad_fill_mode" : 0,
      "pad_b" : 1,
      "pad_l" : 1,
      "top" : "conv_stage3_block0_branch2b",
      "blob_weights" : 183,
      "K" : 256,
      "blob_biases" : 181,
      "name" : "conv_stage3_block0_branch2b",
      "has_batch_norm" : 0,
      "type" : "convolution",
      "n_groups" : 1,
      "pad_t" : 1,
      "has_biases" : 1,
      "C" : 256,
      "bottom" : "conv_stage3_block0_branch2a",
      "weights" : {

      },
      "Nx" : 3,
      "pad_mode" : 0,
      "pad_value" : 0,
      "Ny" : 3,
      "n_parallel" : 1
    },
    {
      "pad_r" : 0,
      "fused_relu" : 0,
      "fused_tanh" : 0,
      "debug_info" : "conv_stage3_block0_branch2c",
      "pad_fill_mode" : 0,
      "pad_b" : 0,
      "pad_l" : 0,
      "top" : "conv_stage3_block0_branch2c",
      "blob_weights" : 187,
      "K" : 256,
      "blob_biases" : 185,
      "name" : "conv_stage3_block0_branch2c",
      "has_batch_norm" : 0,
      "type" : "convolution",
      "n_groups" : 1,
      "pad_t" : 0,
      "has_biases" : 1,
      "C" : 1024,
      "bottom" : "conv_stage3_block0_branch2b",
      "weights" : {

      },
      "Nx" : 1,
      "pad_mode" : 0,
      "pad_value" : 0,
      "Ny" : 1,
      "n_parallel" : 1
    },
    {
      "bottom" : "conv_stage3_block0_proj_shortcut,conv_stage3_block0_branch2c",
      "alpha" : 1,
      "operation" : 0,
      "weights" : {

      },
      "fused_relu" : 0,
      "debug_info" : "eltwise_stage3_block0",
      "top" : "eltwise_stage3_block0_198relu_stage3_block0",
      "type" : "elementwise",
      "name" : "eltwise_stage3_block0",
      "beta" : 0
    },
    {
      "bottom" : "eltwise_stage3_block0_198relu_stage3_block0",
      "weights" : {

      },
      "mode" : 0,
      "debug_info" : "relu_stage3_block0",
      "top" : "eltwise_stage3_block0",
      "type" : "activation",
      "name" : "relu_stage3_block0"
    },
    {
      "pad_r" : 0,
      "fused_relu" : 1,
      "fused_tanh" : 0,
      "debug_info" : "conv_stage3_block1_branch2a",
      "pad_fill_mode" : 0,
      "pad_b" : 0,
      "pad_l" : 0,
      "top" : "conv_stage3_block1_branch2a",
      "blob_weights" : 191,
      "K" : 1024,
      "blob_biases" : 189,
      "name" : "conv_stage3_block1_branch2a",
      "has_batch_norm" : 0,
      "type" : "convolution",
      "n_groups" : 1,
      "pad_t" : 0,
      "has_biases" : 1,
      "C" : 256,
      "bottom" : "eltwise_stage3_block0",
      "weights" : {

      },
      "Nx" : 1,
      "pad_mode" : 0,
      "pad_value" : 0,
      "Ny" : 1,
      "n_parallel" : 1
    },
    {
      "pad_r" : 1,
      "fused_relu" : 1,
      "fused_tanh" : 0,
      "debug_info" : "conv_stage3_block1_branch2b",
      "pad_fill_mode" : 0,
      "pad_b" : 1,
      "pad_l" : 1,
      "top" : "conv_stage3_block1_branch2b",
      "blob_weights" : 195,
      "K" : 256,
      "blob_biases" : 193,
      "name" : "conv_stage3_block1_branch2b",
      "has_batch_norm" : 0,
      "type" : "convolution",
      "n_groups" : 1,
      "pad_t" : 1,
      "has_biases" : 1,
      "C" : 256,
      "bottom" : "conv_stage3_block1_branch2a",
      "weights" : {

      },
      "Nx" : 3,
      "pad_mode" : 0,
      "pad_value" : 0,
      "Ny" : 3,
      "n_parallel" : 1
    },
    {
      "pad_r" : 0,
      "fused_relu" : 0,
      "fused_tanh" : 0,
      "debug_info" : "conv_stage3_block1_branch2c",
      "pad_fill_mode" : 0,
      "pad_b" : 0,
      "pad_l" : 0,
      "top" : "conv_stage3_block1_branch2c",
      "blob_weights" : 199,
      "K" : 256,
      "blob_biases" : 197,
      "name" : "conv_stage3_block1_branch2c",
      "has_batch_norm" : 0,
      "type" : "convolution",
      "n_groups" : 1,
      "pad_t" : 0,
      "has_biases" : 1,
      "C" : 1024,
      "bottom" : "conv_stage3_block1_branch2b",
      "weights" : {

      },
      "Nx" : 1,
      "pad_mode" : 0,
      "pad_value" : 0,
      "Ny" : 1,
      "n_parallel" : 1
    },
    {
      "bottom" : "eltwise_stage3_block0,conv_stage3_block1_branch2c",
      "alpha" : 1,
      "operation" : 0,
      "weights" : {

      },
      "fused_relu" : 0,
      "debug_info" : "eltwise_stage3_block1",
      "top" : "eltwise_stage3_block1_211relu_stage3_block1",
      "type" : "elementwise",
      "name" : "eltwise_stage3_block1",
      "beta" : 0
    },
    {
      "bottom" : "eltwise_stage3_block1_211relu_stage3_block1",
      "weights" : {

      },
      "mode" : 0,
      "debug_info" : "relu_stage3_block1",
      "top" : "eltwise_stage3_block1",
      "type" : "activation",
      "name" : "relu_stage3_block1"
    },
    {
      "pad_r" : 0,
      "fused_relu" : 1,
      "fused_tanh" : 0,
      "debug_info" : "conv_stage3_block2_branch2a",
      "pad_fill_mode" : 0,
      "pad_b" : 0,
      "pad_l" : 0,
      "top" : "conv_stage3_block2_branch2a",
      "blob_weights" : 203,
      "K" : 1024,
      "blob_biases" : 201,
      "name" : "conv_stage3_block2_branch2a",
      "has_batch_norm" : 0,
      "type" : "convolution",
      "n_groups" : 1,
      "pad_t" : 0,
      "has_biases" : 1,
      "C" : 256,
      "bottom" : "eltwise_stage3_block1",
      "weights" : {

      },
      "Nx" : 1,
      "pad_mode" : 0,
      "pad_value" : 0,
      "Ny" : 1,
      "n_parallel" : 1
    },
    {
      "pad_r" : 1,
      "fused_relu" : 1,
      "fused_tanh" : 0,
      "debug_info" : "conv_stage3_block2_branch2b",
      "pad_fill_mode" : 0,
      "pad_b" : 1,
      "pad_l" : 1,
      "top" : "conv_stage3_block2_branch2b",
      "blob_weights" : 207,
      "K" : 256,
      "blob_biases" : 205,
      "name" : "conv_stage3_block2_branch2b",
      "has_batch_norm" : 0,
      "type" : "convolution",
      "n_groups" : 1,
      "pad_t" : 1,
      "has_biases" : 1,
      "C" : 256,
      "bottom" : "conv_stage3_block2_branch2a",
      "weights" : {

      },
      "Nx" : 3,
      "pad_mode" : 0,
      "pad_value" : 0,
      "Ny" : 3,
      "n_parallel" : 1
    },
    {
      "pad_r" : 0,
      "fused_relu" : 0,
      "fused_tanh" : 0,
      "debug_info" : "conv_stage3_block2_branch2c",
      "pad_fill_mode" : 0,
      "pad_b" : 0,
      "pad_l" : 0,
      "top" : "conv_stage3_block2_branch2c",
      "blob_weights" : 211,
      "K" : 256,
      "blob_biases" : 209,
      "name" : "conv_stage3_block2_branch2c",
      "has_batch_norm" : 0,
      "type" : "convolution",
      "n_groups" : 1,
      "pad_t" : 0,
      "has_biases" : 1,
      "C" : 1024,
      "bottom" : "conv_stage3_block2_branch2b",
      "weights" : {

      },
      "Nx" : 1,
      "pad_mode" : 0,
      "pad_value" : 0,
      "Ny" : 1,
      "n_parallel" : 1
    },
    {
      "bottom" : "eltwise_stage3_block1,conv_stage3_block2_branch2c",
      "alpha" : 1,
      "operation" : 0,
      "weights" : {

      },
      "fused_relu" : 0,
      "debug_info" : "eltwise_stage3_block2",
      "top" : "eltwise_stage3_block2_224relu_stage3_block2",
      "type" : "elementwise",
      "name" : "eltwise_stage3_block2",
      "beta" : 0
    },
    {
      "bottom" : "eltwise_stage3_block2_224relu_stage3_block2",
      "weights" : {

      },
      "mode" : 0,
      "debug_info" : "relu_stage3_block2",
      "top" : "eltwise_stage3_block2",
      "type" : "activation",
      "name" : "relu_stage3_block2"
    },
    {
      "pad_r" : 0,
      "debug_info" : "pool",
      "pad_fill_mode" : 0,
      "pad_b" : 0,
      "pad_l" : 0,
      "size_x" : 7,
      "top" : "pool",
      "top_shape_style" : 2,
      "stride_x" : 1,
      "avg_or_max" : 0,
      "average_count_exclude_padding" : 0,
      "type" : "pool",
      "name" : "pool",
      "pad_t" : 0,
      "stride_y" : 1,
      "bottom" : "eltwise_stage3_block2",
      "weights" : {

      },
      "pad_mode" : 0,
      "size_y" : 7,
      "pad_value" : 0
    },
    {
      "bottom" : "pool",
      "weights" : {

      },
      "mode" : 0,
      "nd_axis" : 0,
      "debug_info" : "fc_nsfw_preflatten",
      "top" : "pool_228_flattened",
      "type" : "flatten",
      "name" : "fc_nsfw_preflatten"
    },
    {
      "nB" : 1024,
      "top" : "fc_nsfw",
      "has_biases" : 1,
      "weights" : {

      },
      "nC" : 2,
      "blob_weights" : 215,
      "type" : "inner_product",
      "has_relu" : 0,
      "bottom" : "pool_228_flattened",
      "blob_biases" : 213,
      "has_tanh" : 0,
      "debug_info" : "fc_nsfw",
      "name" : "fc_nsfw",
      "has_prelu" : 0
    },
    {
      "bottom" : "fc_nsfw",
      "attributes" : {
        "is_output" : 1
      },
      "weights" : {

      },
      "debug_info" : "prob",
      "top" : "prob",
      "C" : 2,
      "type" : "softmax",
      "name" : "prob"
    }
  ],
  "transform_params" : {
    "data" : {
      "bias_a" : 0,
      "bias_g" : -116.77899932861328,
      "bias_r" : -123.68000030517578,
      "bias_b" : -103.93900299072266,
      "center_mean" : 0,
      "is_network_bgr" : 1,
      "scale" : 1
    }
  },
  "storage" : "model.espresso.weights",
  "metadata_in_weights" : [

  ],
  "properties" : {

  },
  "analyses" : {

  },
  "format_version" : 200
}